travel_lightgcn.pth (torch, 173896 bytes, 2 tensors)

user_embedding.weight f4 [272, 64]
000000 81 7f a0 bd ff d7 cc bd bc 27 f8 3b 1e 3b f7 3d
       -0.078368194 -0.100021355 0.007573096 0.120718226
000010 d0 79 ee bd e0 59 df 3c e3 1a 1b 3d d9 a8 09 be
       -0.11644328 0.027264535 0.037867438 -0.13443317
000020 32 28 0e bd 9a ff 26 bd 24 ae 65 bd ff 5a d5 bd
       -0.034706302 -0.040771104 -0.056074277 -0.10417747
000030 e1 60 37 3d cc fd 23 3d b8 6e c7 3c 2d f5 a2 bd
       0.044770125 0.04003696 0.024344787 -0.0795692
000040 dd c8 6b 3c 56 fa ad bd 15 4d 01 bd 06 94 09 be
       0.014391151 -0.084950134 -0.03156765 -0.13435373
000050 c7 96 fa bc 94 f6 80 3d 88 e9 b6 3d 7c a8 13 be
       -0.030589474 0.06297031 0.08931261 -0.1441974
000060 25 21 21 be b8 15 9c 3a a1 8e c5 3b 05 44 c7 3b
       -0.157353 0.0011908328 0.0060289656 0.0060811066
000070 b6 fa a1 3d 80 17 13 3d 4f b4 c4 bd 51 76 f1 3c
       0.079091474 0.035911083 -0.09604704 0.029475363
000080 7c bd 71 3d c6 d1 c1 bd de bc 2e 3e 49 20 00 3d
       0.059018597 -0.09463839 0.17064235 0.03128079
000090 e0 a1 a0 bd d2 1f e8 bd 6e 78 20 bd 4e 35 fd 3c
       -0.07843375 -0.11334194 -0.03917735 0.030909207
0000a0 b7 f5 87 3d be 7f 36 bd 8a 74 cf 3d ef 70 b8 3d
       0.06638663 -0.04455542 0.1012965 0.090059154
0000b0 30 6a 71 3d 79 2c b8 bd 2d f7 9d 3d 86 8a 02 3d
       0.05893916 -0.089928575 0.07713161 0.031870387
0000c0 52 e7 8c 3d 36 8a ca 38 d9 91 8a bd fc f5 bd bd
       0.06880058 9.6578544e-05 -0.067660995 -0.092754334
0000d0 60 03 85 bd c7 13 a8 bc 34 81 5b bd 42 f2 5f 3d
       -0.06494784 -0.020517243 -0.053590015 0.054674394
0000e0 c9 25 4c 3d e0 8e 39 bb ab b7 d7 3a 1f ed 87 3b
       0.049840722 -0.002831392 0.0016457936 0.00414814
0000f0 ac 18 2d 3e a9 cc 0b be 05 ce ad bd 10 04 ca 3d
       0.16903943 -0.1365229 -0.08486561 0.09864056
000100 15 31 a0 3b 07 0c b8 bd c3 6f 37 bd a4 4d 84 bd
       0.0048886635 -0.08986669 -0.04478432 -0.06460121
000110 48 25 00 be 06 80 b5 bd 2b 7b 18 be b3 6b 77 bc
       -0.12514222 -0.08862309 -0.14890735 -0.015101361
000120 34 97 d9 3d aa 1e 8e bd 73 d1 e3 3c 15 e9 7e bd
       0.10624543 -0.069394425 0.027809834 -0.062234003
000130 49 d5 89 bd fb 91 df bc b7 a5 02 be 8c 1d 7f bc
       -0.06730134 -0.027291289 -0.12758528 -0.015571009
000140 3d d6 8d bd 43 b2 4d bd 98 08 eb bd ad e7 f6 3d
       -0.06925628 -0.05021883 -0.114762485 0.120559074
000150 3a db c5 bd c2 37 91 3c 5f 63 bd bd bc e7 a7 bd
       -0.09660955 0.017726783 -0.09247469 -0.08198497
000160 4d a3 eb bd fc 79 9a bb d2 83 b5 3c c3 f5 f5 bd
       -0.115057565 -0.0047142487 0.022157583 -0.12009766
000170 e5 32 1d be f1 e9 ca 3d 2e 04 e4 3d 31 40 b2 3d
       -0.15351446 0.09907902 0.1113361 0.0870365
000180 23 59 1d bc 83 4e f8 3d 88 3d 90 bc 1a 0c 8f bc
       -0.009603771 0.1212435 -0.017607465 -0.017461825
000190 d4 b3 08 3d 98 ed d1 3d e4 ad 28 3d 92 3c 82 3c
       0.033374622 0.102503955 0.04118146 0.015898023
0001a0 cc 6f 1a be 47 ab a8 3d 3b 84 3e bd 61 93 b3 bd
       -0.1508171 0.082357936 -0.046512824 -0.08768345
0001b0 a2 54 0d 3c e5 d4 01 3e 1f 09 03 3e cc f8 91 bd
       0.008626135 0.12678869 0.12796448 -0.07127532
0001c0 b7 06 67 bd 2c 91 92 bd 07 a4 88 bc 54 b3 d9 3d
       -0.05640289 -0.071565956 -0.016679777 0.10629907
0001d0 3c 7c 18 bc 99 3c 9f bd 4a 33 ca 3d 40 98 d0 bb
       -0.0093069635 -0.0777523 0.09873064 -0.006365806
0001e0 50 8e 52 bc 57 e5 1e 3d dc fe a3 bd 96 1a e7 3c
       -0.012851313 0.038792934 -0.08007595 0.02821092
0001f0 a8 a8 d2 bd 6a 73 f1 bd 48 4b a4 3d 83 e7 56 3b
       -0.10286075 -0.117895916 0.08022171 0.00327918
000200 77 5b 8c 3d cb 61 c3 3d b0 4e 07 3e 54 8b c1 bd
       0.06853383 0.09540137 0.1321361 -0.09450403
000210 02 1a 52 bd e0 04 06 be d8 52 19 3c 7f 96 b0 bc
       -0.051294334 -0.13087797 0.00935813 -0.021556137
000220 6d fc cd bd d2 39 96 bd 9d ba fd 3d db c4 0b 3e
       -0.10057912 -0.07335247 0.12389109 0.13649313
000230 5a f4 8c bd e0 ce cc bd 87 53 ad bd 3a 57 6f bc
       -0.06882544 -0.10000396 -0.08463197 -0.014608199
000240 0a 62 ed 3d 12 ae 19 3c 1e fb 13 bc 40 38 4e bd
       0.11590965 0.0093798805 -0.009032039 -0.050346613
000250 17 f3 85 3d 4a e9 cd bd 73 2d 7a bd 01 a5 57 bd
       0.06540506 -0.10054262 -0.0610785 -0.052647594
000260 d1 aa 0d bd c1 f9 b4 3d 80 bf ec bd 06 c3 a7 bd
       -0.03458673 0.08836699 -0.11559963 -0.08191495
000270 2b 45 c1 3d d0 20 9e 3b 31 c5 1a be 40 92 0c bd
       0.09437021 0.004825689 -0.15114285 -0.034319162
000280 be 32 16 3e 2e c6 e0 3d 4f 15 3c bd 73 f8 8f 3d
       0.14667794 0.109753 -0.04591876 0.0702981
000290 a9 b1 78 3d 2f 86 a6 bd f5 28 3c 3d 25 4f 4b bd
       0.060716305 -0.08131062 0.045937497 -0.049636025
0002a0 c5 21 4c bd c5 3a d3 bd 4e 34 7b 3d 94 6f 19 3e
       -0.049836893 -0.10313944 0.06132918 0.1498397
0002b0 ce 5a 20 3d 75 96 1d bc 01 32 8a bd 8b 77 75 3d
       0.039149098 -0.009618391 -0.06747819 0.05992846
0002c0 c0 46 5d bc 6e 1e b7 3d 5a 11 e9 bd 3a 13 c1 bc
       -0.013505638 0.08941351 -0.11380263 -0.023568738
0002d0 46 76 3e 3d 33 0b 97 bc 27 18 b3 3b df 8d 04 be
       0.046499513 -0.018437957 0.0054655257 -0.12944745
0002e0 5b 78 f5 bd 36 c1 6c 3d 05 44 9d 3d 74 d4 85 3d
       -0.119858466 0.057801448 0.07678989 0.06534663
0002f0 59 11 02 3d 39 85 9f bb 57 08 fb 3d 60 21 0f 3d
       0.031754825 -0.0048681763 0.1225745 0.03494394
000300 95 1e 51 39 6d 57 c6 3d b0 8d 75 3c 7b 2b ae 3d
       0.00019943186 0.09684644 0.014987394 0.08504387
000310 bd 17 07 be c1 6c dd 3b 9e a8 94 3d 9b f3 57 bd
       -0.13192649 0.0067573492 0.07258724 -0.052722555
000320 40 c3 b3 3d 67 b7 18 3e 4e 1a 72 3b 6d 27 44 bd
       0.08777475 0.14913712 0.0036941948 -0.04788916
000330 b3 4f da 3c 7a 96 d1 3d ed 80 15 3d ca cd 4a 3d
       0.026649332 0.10233779 0.036499906 0.049512662
000340 ad 7d d8 bd af fa 0a bd ff f7 cc 3d 16 28 ef 3c
       -0.10570846 -0.033930477 0.10008239 0.02919392
000350 d7 52 c2 3d 3d c0 40 3d eb 44 75 3d 52 1f ef 3d
       0.09488457 0.047058333 0.05988018 0.11675896
000360 e7 d2 b8 bd 7a ab 77 bd 96 58 dd bc 36 98 24 bc
       -0.090246014 -0.060466267 -0.02701978 -0.010046056
000370 fd a8 74 bd 83 69 ba bd ce d0 dc 3c 39 03 a6 3d
       -0.059731472 -0.09102156 0.026955035 0.081060834
000380 9a 72 73 bc 4b 35 85 bd 8a f9 a1 bd d5 0e bd 3d
       -0.014858866 -0.065043055 -0.07908924 0.092313446
000390 ad a3 99 3d 22 a3 f7 3c de 37 be 3d 79 5a b2 bb
       0.07501922 0.030229155 0.092879996 -0.005442914
0003a0 b2 43 5f bc d9 78 ab bd 89 fc a3 3d 8b d3 13 bc
       -0.01362698 -0.08372659 0.08007152 -0.009022604
0003b0 78 59 a1 bd 4f 05 d6 bd 4a c8 90 bd 6f ff ba bd
       -0.07878393 -0.10450231 -0.07069452 -0.09130751
0003c0 88 13 3e bd c9 c3 b9 3d 6b 42 a9 bc 0d c8 02 be
       -0.046405345 0.09070546 -0.020661553 -0.12771626
0003d0 f0 ac 84 3c f2 2e bc bd da 11 25 3d 28 71 c1 bd
       0.016195744 -0.091886416 0.040300228 -0.09445411
0003e0 7b 21 2d bd e4 44 8e bd b3 63 00 be dc 33 1e 3a
       -0.042268258 -0.069467336 -0.12538032 0.00060349493
0003f0 2e 0b c0 3d 3f 8a b8 3c 1f 83 86 bc 64 c3 cf 3b
       0.09377132 0.022526858 -0.016419945 0.006340431

item_embedding.weight f4 [272, 64]
000000 37 5f c4 3c a5 13 08 be f3 6d de bd 11 fd f9 3d
       0.023971183 -0.13288744 -0.10860815 0.12206472
000010 ba c9 06 be 78 c2 5a 3c e7 42 f1 bb 18 fd c7 bd
       -0.1316289 0.013352029 -0.0073627117 -0.09765071
000020 e8 96 75 3d d9 17 a7 bd a6 af 15 bd 33 ca 0b be
       0.05995837 -0.081588455 -0.036544465 -0.13651352
000030 c5 4e 4c 3d a4 ae 8c bd 06 dd b9 bd 1b 50 cf bb
       0.049879808 -0.068692476 -0.0907536 -0.006326688
000040 34 7d 3b 3d fa ef 00 be 97 a8 31 3b 37 1f a0 bd
       0.0457737 -0.12591544 0.0027108544 -0.07818454
000050 b2 c4 db bd 17 06 5c bc 50 ae 97 bd 63 31 61 bd
       -0.10730876 -0.013429186 -0.07406294 -0.05497874
000060 1a 2c da bd 32 ac 3d 3c a8 6e 64 3d f1 d7 f0 3c
       -0.10652943 0.011576699 0.055769593 0.029399844
000070 a2 db c0 bc 8f 9b 05 3e ee c9 d1 bd c4 e8 3f ba
       -0.02354223 0.13047622 -0.10243593 -0.00073207566
000080 59 05 2c bd 95 2d 84 bd 86 6b 31 3e e9 11 9f bd
       -0.041997287 -0.064540066 0.17326173 -0.07767088
000090 22 7b dd bc 79 a9 1c bd 11 5e 92 bd 42 41 12 3e
       -0.027036253 -0.03824756 -0.07146848 0.14282706
0000a0 06 52 a5 bc ad 0b bb 3b 6d 78 d5 bc 29 d5 fb 3d
       -0.020180713 0.005708179 -0.0260584 0.122965164
0000b0 05 30 b6 bd 69 87 96 bd b0 68 15 3d 41 c8 2d 3d
       -0.08895878 -0.07350046 0.03647679 0.042427305
0000c0 d7 65 ee 3c cd 8e a6 3c 6b 4f da 3c dd 10 1b be
       0.029101295 0.020331765 0.026649198 -0.15143152
0000d0 b2 ee b9 bb 2f f1 0d bd 02 89 97 3d 88 d3 c0 bc
       -0.0056742067 -0.03465384 0.07399179 -0.023538366
0000e0 13 9c 5d 3c 3e a0 1c 3d c4 31 a2 3c 96 64 a9 3d
       0.0135259805 0.038238756 0.01979912 0.08271138
0000f0 65 02 2e 3e bb 48 06 be b3 9c b3 3d c1 7b 28 3e
       0.16993101 -0.13113682 0.087701224 0.16453458
000100 57 84 c0 3d d6 33 81 bd de 66 a9 3d 41 5d e1 bd
       0.09400242 -0.06308715 0.082715735 -0.11004115
000110 f8 c2 98 bd 06 4a dd 3b dd 88 6a bd ce 20 c9 3c
       -0.07459062 0.006753209 -0.05725943 0.024551775
000120 2d 52 27 bc 1b 4a 14 bd d8 16 85 bd b7 69 15 bd
       -0.010212463 -0.036203485 -0.06498498 -0.03647777
000130 f9 e3 0d be 26 41 c5 3c 15 91 8f bd 72 12 d0 bc
       -0.13856496 0.024078917 -0.07010094 -0.02539942
000140 fb f0 e1 bd 63 b4 51 bd a8 d0 90 bd 9f f6 92 3c
       -0.110322915 -0.05119742 -0.07071048 0.017939864
000150 63 dc c5 bd d1 1b ce bd 8e 8e 9d 3b 4d 86 10 be
       -0.09661176 -0.10063899 0.0048082536 -0.14113732
000160 63 05 19 bd a0 f8 72 3d c9 b5 b1 bd a4 2f c6 bd
       -0.037358653 0.05931914 -0.08677251 -0.096770555
000170 cc 32 a1 bd 94 d2 6f 3d cd 73 21 3e 47 9b 65 bc
       -0.07871017 0.058550432 0.1576683 -0.014014072
000180 73 2c 87 3d 88 a4 94 3d 69 98 95 bd 34 2d 8f bd
       0.06600275 0.07257944 -0.073044606 -0.06991044
000190 da f8 a3 bc b4 9c e9 3d cb ea cb 3d 69 74 a2 3d
       -0.020016123 0.11406842 0.099568926 0.0793236
0001a0 33 a9 ec bd 0b 87 f5 bc af 42 13 be 98 af 08 bd
       -0.1155571 -0.02997162 -0.14380907 -0.033370584
0001b0 b5 1b 5e bc 80 b1 67 3d 77 d6 8e 3d 4f e2 43 bc
       -0.013556411 0.05656576 0.069745 -0.011955812
0001c0 c2 94 c2 bd 20 30 ea bc 18 ab ea bc fc 5f 04 3e
       -0.095010296 -0.0285874 -0.028646037 0.1292724
0001d0 13 c3 5d 3d 63 7d 75 3d 15 e0 f9 3d 5d 12 99 3d
       0.054141115 0.05993403 0.122009434 0.07474206
0001e0 92 9a 04 be e0 d6 01 bd f3 c1 dd bd d6 8a c0 bd
       -0.12949589 -0.03169906 -0.108280085 -0.09401481
0001f0 43 18 f8 bd 97 24 9a 3c e8 12 2d 3d 7a 8f 18 3d
       -0.121140026 0.018816276 0.04225436 0.037246205
000200 df 40 b2 bd fe 17 c2 bc da 97 bb 3d 91 af ce bc
       -0.087037794 -0.023693081 0.09159823 -0.025230201
000210 38 d6 c2 3d 99 b6 7b bd 54 04 3f bd f7 d9 a3 bc
       0.09513515 -0.061453436 -0.046634987 -0.020001395
000220 5b 9c b2 bd b8 e7 50 3d 5f 15 af 3d 5a 4e b4 3d
       -0.08721229 0.051002234 0.08548998 0.08804007
000230 34 56 91 3d 2a 9f a7 3c 2b 28 09 be b4 ac 30 bd
       0.0709652 0.020461638 -0.13394229 -0.043133453
000240 95 1b c5 3d 5a 85 2c 3c 00 8f 6a 3b 98 64 1e 3d
       0.096244015 0.01052984 0.00357908 0.038670152
000250 e0 f1 56 bb 9e 12 d3 bd 37 d1 8f bd dc a1 39 3d
       -0.0032797977 -0.10306285 -0.070223264 0.045320377
000260 e4 93 8c bd c0 21 1e bd d2 42 2d be 1c cd 19 bd
       -0.068641454 -0.038606405 -0.16920021 -0.037549123
000270 c5 f7 87 3c 5f da 3b bc ed a9 b5 bd 53 2a f3 bd
       0.016597638 -0.011465638 -0.088703014 -0.11873307
000280 6c 63 08 3e b9 d5 d1 3c f1 6f 9f bd 4b f1 75 bd
       0.13319176 0.025614606 -0.07785023 -0.060044568
000290 2d 81 0a 3b 91 ca 5f 3d 66 2c aa 3b 24 14 df bd
       0.0021134124 0.05463654 0.005193281 -0.108925134
0002a0 fd 12 0e be 31 5f 04 be f5 47 bd 3d b6 64 33 3e
       -0.13874431 -0.12926938 0.0924224 0.17518887
0002b0 ed 04 71 b9 76 26 ca bc 4e d0 3b 3d bf 57 32 bd
       -0.00022985386 -0.024676543 0.04585295 -0.043540712
0002c0 b7 ad d5 3c 13 be 9e bd d8 b1 0b be cd be cd bc
       0.02608381 -0.077510975 -0.13642061 -0.025115395
0002d0 5f dd 9c bd b6 98 26 3c 83 02 10 3b 19 37 55 bd
       -0.07659411 0.010168245 0.0021974153 -0.0520545
0002e0 a6 d4 ca bd cd 1e 37 bc d6 10 02 3e c5 78 be 3d
       -0.09903841 -0.011176777 0.12701735 0.09300379
0002f0 5e 9c 00 3e 6d 92 d2 bb 17 1a c0 3d fb c1 5f bd
       0.1255965 -0.0064261467 0.09379976 -0.054628354
000300 14 43 4b bd 49 06 b2 bd 4d a0 85 3c d5 00 1b 3e
       -0.049624518 -0.08692605 0.016311789 0.15137036
000310 d2 95 23 be b5 7f f7 bc 36 9b 1b 3e 14 cc ef bd
       -0.1597512 -0.030212263 0.15195927 -0.11708847
000320 77 5d 85 bd b0 c1 1d 3e fc e9 b9 3c 17 0c 35 3d
       -0.06511968 0.15405917 0.02269458 0.044200983
000330 87 56 ab bc a1 bb fb 3d 65 9b 2d bd b8 6d 8b bd
       -0.020915283 0.12291647 -0.042384524 -0.068080366
000340 b7 5c 60 bd 5a e2 a0 bd 94 11 e7 3d c0 ec 70 3d
       -0.05477592 -0.07855673 0.1128265 0.058819532
000350 b3 d8 eb bc bc a7 af 3d 57 98 d8 3d 79 79 17 3d
       -0.028789854 0.08576915 0.105759315 0.03698108
000360 e7 e3 1d be 9c c8 16 bd 39 cc 2f bc 2c 80 27 bd
       -0.15418969 -0.03681241 -0.010729843 -0.04089372
000370 5c 1c 0d bd c6 1f 80 bc bb 2b ff bc 90 a0 b8 bb
       -0.034450874 -0.01564015 -0.031148782 -0.005634375
000380 0f 0e 97 bd 37 5c 22 be 69 56 ad 3d aa 3b bb 3c
       -0.07375728 -0.1585549 0.08463747 0.022855598
000390 8a 16 8b bd 70 00 ee 3c f6 a2 bf bc f1 19 72 39
       -0.06791408 0.029052943 -0.023393136 0.00023088582
0003a0 aa 67 d0 bc c2 cf 00 bd ae 90 ea 3a d7 66 8d 3c
       -0.025440056 -0.031448133 0.0017895901 0.017260952
0003b0 b4 b6 22 bd f0 ad e6 bd bb 02 15 be a2 42 21 be
       -0.03972502 -0.11263645 -0.14551823 -0.15748075
0003c0 e5 9b fc bd 5e ee 8b 3d 73 50 07 bd 7c 05 f4 bd
       -0.12334422 0.06832574 -0.033035707 -0.119151086
0003d0 c6 64 a6 bc 1f d1 90 bd 01 f2 a7 3d b5 fb 80 bd
       -0.020311724 -0.07071137 0.082004555 -0.06298009
0003e0 6a 05 f0 bc 83 c3 10 bc 2e fd 27 be 81 0e a8 3d
       -0.029299457 -0.008835676 -0.16405174 0.082058914
0003f0 80 cb 09 bd f3 fc fd 3d f9 48 39 bd 8f 03 09 3d
       -0.03364134 0.12401762 -0.045235608 0.03345066
